models/ocr_dr.tflite (tflite, 500640 bytes, 24 tensors)

unknown_0 f4 [32]
-0.072153606 -0.18147098 -0.11618452 -0.08732481 -0.101668775 0.08245428 -0.15349825 -0.12074693
0.11668597 -0.075888224 -0.10018716 0.21631092 0.0147874905 -0.038481493 0.09234663 0.04584699
-0.14192119 -0.04598134 0.29477426 -0.002046605 0.17674206 0.2553237 -0.12846503 -0.042293847
-0.16914415 -0.11021266 -0.052973222 -0.013500367 0.05763656 -0.058739983 -0.16022074 0.162898
00000000: 45c5 93bd 87d3 39be 26f2 edbd 5ad7 b2bd
00000010: b837 d0bd cadd a83d a52e 1dbe 2b4a f7bd
00000020: 0ef9 ee3d 496b 9bbd ed2e cdbd 9c80 5d3e
00000030: 3b47 723c c59e 1dbd 3b20 bd3d 0eca 3b3d
00000040: ca53 11be ee56 3cbd a7ec 963e 5620 06bb
00000050: dffb 343e cab9 823e 568c 03be 503c 2dbd
00000060: 2034 2dbe 2db7 e1bd 73fa 58bd a530 5dbc
00000070: 5014 6c3d 5699 70bd e810 24be bcce 263e

unknown_10 f4 [512]
0.13015056 0.113662966 -0.05236902 0.02932194 0.055184226 0.016544972 -0.028731065 0.09301355
0.06005669 -0.016393915 0.07839104 0.04127224 0.04860719 0.04923431 -0.0344678 0.11893759
0.03914018 -0.009416033 0.017179538 0.015767539 0.07962439 0.022719081 0.02122148 0.011787192
0.021907972 -0.0014732302 -0.035694297 0.037713442 0.00916272 -0.019213568 0.020079216 0.11125818
0.034456793 0.12407572 0.042397056 0.007816075 0.010488192 0.13399069 0.075368285 0.03622715
0.058053702 0.031596016 -0.012305429 0.0063373246 -0.021177595 0.0052044545 0.056233738 0.08201659
0.010587602 0.030026516 -0.0073537286 0.014724561 0.08541029 -0.022234581 0.06907874 0.04399532
0.02718391 0.07374644 0.042375248 -0.03392352 -0.0004695851 0.08917447 0.026908355 -0.002319491
0.095441796 -0.024463857 -0.024216652 0.009677606 0.19085272 0.16821615 -0.014776545 0.02611034
-0.044446606 0.0012426097 0.022995 -0.006349834 0.00692433 0.02827734 0.036594227 0.086709596
0.07307775 0.048791803 0.09271878 0.07058103 0.0029822222 0.01888714 0.023572175 -0.0069787614
-0.002024475 0.02661112 -0.0072425315 0.019447604 -0.033231348 0.05611989 -0.009538077 0.034487803
-0.015479273 0.0105690425 0.06097332 0.030352151 -0.0031705373 0.013736612 0.07569265 0.021376595
0.02777551 0.005767079 0.011820063 0.028425068 0.033946335 -0.004109714 0.009928979 0.017643355
0.011940264 0.030095227 0.021121036 -0.03293759 0.019352693 -0.009965052 -0.028127965 0.09446309
0.0032451092 0.08868727 0.104240365 0.074915424 0.018146371 -0.009050571 0.02039927 0.033555556
0.8963473 0.9567349 1.036233 0.9776321 0.9712151 0.9586099 0.95441604 0.9707684
0.9512233 0.969277 0.9495299 1.0002185 0.9323944 0.9616994 0.9478641 0.932244
0.97906446 0.95833164 0.9865745 1.0453743 0.9602698 1.0341306 0.9929755 1.0362823
0.9879614 0.9668078 0.9340994 0.9628581 0.98835856 0.95034266 1.0070018 1.0291566
1.0459605 0.9526393 0.95350397 0.9892597 1.0288935 0.9477779 0.89983714 0.9792867
0.9680012 0.94639176 0.9771642 0.96126306 0.99580234 1.0031564 0.94890994 1.0109439
0.97565997 0.9548874 0.93102896 1.023235 0.9453708 0.98835325 0.98764277 0.94955957
0.97956455 0.9820957 0.9928521 0.9241984 0.9970185 1.0409023 0.9175166 1.0195676
1.0106851 0.9275829 0.9519207 0.96211934 0.92345387 0.91323316 0.97825146 0.9073979
0.95935065 0.96833915 0.93250483 1.0178461 0.9308097 0.98201036 0.9609866 0.94457114
1.0090865 0.97460306 0.93355423 0.93415684 0.94404 0.96307987 1.0253823 0.9831023
1.0114164 1.0218048 0.95262855 0.9921081 1.0000523 0.99665254 0.95759684 0.9017485
0.96904063 0.98677415 0.9120433 0.988644 0.9742039 1.0268793 0.9483234 0.925572
0.955728 0.96863467 0.9717992 0.9904226 1.0254064 0.9326887 0.949096 0.9940201
1.0128065 0.96584684 1.017006 0.9387422 0.9745254 0.9678281 0.9951399 0.9421659
1.0058398 0.9369491 0.9380218 1.0090692 1.0354162 0.99897176 1.003934 0.9989536
00000000: 3046 053e 21c8 e83d e680 56bd 9134 f03c
00000010: db08 623d 5289 873c 695d ebbc e37d be3d
00000020: 01fe 753d 884c 86bc 7b8b a03d 150d 293d
00000030: 5518 473d eaa9 493d 1c2e 0dbd 8d95 f33d
00000040: 7451 203d b445 1abc 1abc 8c3c ed2a 813c
00000050: 1d12 a33d 5e1d ba3c abd8 ad3c 111f 413c
00000060: 5978 b33c 6719 c1ba 2f34 12bd 6979 1a3d
00000070: 3c1f 163c c665 9dbc 2b7d a43c 54db e33d
00000080: 9122 0d3d 691b fe3d 89a8 2d3d ff0e 003c
00000090: aad6 2b3c db34 093e b05a 9a3d ec62 143d
000000a0: b8c9 6d3d d36a 013d b69c 49bc 55a9 cf3b
000000b0: a37c adbc 218a aa3b 5955 663d 50f8 a73d
000000c0: 9f77 2d3c 2bfa f53c 8cf7 f0bb 493f 713c
000000d0: 97eb ae3d 4c25 b6bc 2879 8d3d 7034 343d
000000e0: cbb0 de3c 6008 973d ab91 2d3d 64f3 0abd
000000f0: a532 f6b9 1ba1 b63d e96e dc3c 9a02 18bb
00000100: fd76 c33d 6d68 c8bc 0062 c6bc d28e 1e3c
00000110: e56e 433e db40 2c3e 5219 72bc 5ae5 d53c
00000120: a50d 36bd 10df a23a 0360 bc3c 4512 d0bb
00000130: 7de5 e23b e1a5 e73c d4e3 153d cd94 b13d
00000140: caa9 953d ead9 473d 58e3 bd3d c98c 903d
00000150: 6371 433b 34b9 9a3c 6f1a c13c 18ae e4bb
00000160: 0ead 04bb 90ff d93c c252 edbb 9550 9f3c
00000170: 981d 08bd f8dd 653d 9845 1cbc 1543 0d3d
00000180: c79c 7dbc c729 2d3c 29bf 793d 13a5 f83c
00000190: cac8 4fbb 870f 613c c004 9b3d f81d af3c
000001a0: 7789 e33c c4f9 bc3b f0a8 413c b0db e83c
000001b0: 500b 0b3d c8aa 86bb 28ad 223c cc88 903c
000001c0: 19a1 433c 448a f63c 0606 ad3c 91e9 06bd
000001d0: 8a89 9e3c 7544 23bc 9e6c e6bc dd75 c13d
000001e0: e6ab 543b aca1 b53d f97b d53d 426d 993d
000001f0: b3a7 943c d948 14bc 5f1c a73c 8d71 093d
00000200: 0477 653f 94ec 743f 48a3 843f 1946 7a3f
00000210: 8ea1 783f 7567 753f 9c54 743f 4784 783f
00000220: 5f83 733f 8a22 783f 6414 733f 2907 803f
00000230: 66b1 6e3f ef31 763f 39a7 723f 8ba7 6e3f
00000240: f8a3 7a3f 3955 753f 2590 7c3f d3ce 853f
00000250: 3ed4 753f 645e 843f a433 7e3f e6a4 843f
00000260: 0aeb 7c3f b780 773f 2321 6f3f de7d 763f
00000270: 1105 7d3f a849 733f 6fe5 803f 67bb 833f
00000280: 09e2 853f 2be0 733f d618 743f 2040 7d3f
00000290: c8b2 833f 93a1 723f ba5b 663f 88b2 7a3f
000002a0: edce 773f bb46 723f 6f27 7a3f 5615 763f
000002b0: e7ec 7e3f 6e67 803f c3eb 723f 9c66 813f
000002c0: dac4 793f 8073 743f ea57 6e3f 5df9 823f
000002d0: d203 723f b804 7d3f 28d6 7c3f 5616 733f
000002e0: bec4 7a3f a06a 7b3f 8e2b 7e3f 4498 6c3f
000002f0: 9b3c 7f3f 493c 853f 5ee2 6a3f 3181 823f
00000300: 215e 813f 1376 6d3f 13b1 733f 744d 763f
00000310: 7967 6c3f a6c9 693f b06e 7a3f 3b4b 683f
00000320: 0198 753f 13e5 773f a3b8 6e3f c848 823f
00000330: 8b49 6e3f 0865 7b3f 3803 763f 6acf 713f
00000340: bf29 813f 967f 793f 69fd 6e3f e724 6f3f
00000350: 9bac 713f 678c 763f ba3f 833f 98ac 7b3f
00000360: 1876 813f 80ca 823f 77df 733f ccfa 7d3f
00000370: b701 803f 9f24 7f3f 1125 753f fdd8 663f
00000380: 0c13 783f 3b9d 7c3f ab7b 693f c617 7d3f
00000390: 6d65 793f c870 833f 53c5 723f 49f2 6c3f
000003a0: 97aa 743f 71f8 773f d5c7 783f 568c 7d3f
000003b0: 8440 833f b0c4 6e3f f5f7 723f 1a78 7e3f
000003c0: a5a3 813f bd41 773f 412d 823f 6951 703f
000003d0: 7f7a 793f 95c3 773f 7dc1 7e3f c931 713f
000003e0: 5cbf 803f e5db 6f3f 3222 703f 2e29 813f
000003f0: 8588 843f 9dbc 7f3f e980 803f 6cbb 7f3f

unknown_13 f4 [256]
0.027961846 0.013744024 0.016575128 0.014644439 0.044760197 0.027326265 0.013248972 0.03488678
0.014293807 -0.009902705 0.047367603 0.025052113 0.022513233 0.02031906 -0.003399782 0.03460985
0.043075662 0.053533144 -0.013274644 0.026361596 0.027371803 0.021392107 0.052588288 0.0025035576
0.028570354 0.07957694 0.005492147 0.028740194 0.02041087 0.011149812 0.0054298006 0.015299275
0.052842584 0.04953535 0.03436713 0.018324552 0.052996494 0.03277065 0.04008297 0.04332448
0.03142484 0.035676043 0.008777611 0.022525761 0.015848294 0.0126274405 0.03936736 0.012945395
4.9890717e-05 0.00453787 0.029060934 0.013215016 0.009758409 0.008588018 0.043853115 0.014427954
0.011306965 0.00857281 0.021658277 0.01390036 0.013023564 0.019002633 0.019885495 0.034431092
1.0069394 1.0159953 1.0087782 1.009955 0.98138297 1.013337 1.0153624 1.006165
1.0160464 0.9794713 1.0055094 1.0450162 1.0122912 1.0105435 0.99739444 1.0001799
0.99966073 0.9890267 1.0350848 0.9903445 1.0145651 1.0061116 0.98721755 1.0026282
0.9961348 0.9691165 0.9910769 0.9940682 1.013678 0.98860264 1.0155433 0.99280787
1.0067947 1.0146669 1.008532 1.0084184 0.9895676 1.0252259 1.0003446 1.014754
0.983965 0.9926256 1.0131599 1.0171762 0.99803376 1.0000159 0.99302775 0.9953171
1.0071515 1.0211829 0.99776274 0.9756263 0.9757781 0.99197394 1.0086992 1.0113975
1.0118674 0.99103624 1.0177044 1.014245 1.0120173 1.0181357 0.9733234 1.0120759
0.0075820987 -0.014261241 0.013348891 -0.018759673 0.018130908 0.014403789 0.013800326 -0.024648948
0.015293221 0.010673876 0.016956609 0.0037152607 -0.0186929 0.013876417 0.027356837 -0.020516304
-0.014614374 0.008507688 0.0112415515 -0.015491464 -0.019139675 -0.004879515 0.04263691 0.02513711
-0.026215475 -0.01301007 0.025071396 -0.014628735 0.0118630985 0.018567806 -0.011508905 0.0077301865
0.027396778 0.037042577 0.02601369 -0.016294226 -0.010773626 -0.017062971 -0.02438989 -0.022493936
-0.013146492 0.023040758 0.010911017 0.015310873 0.021356547 0.015621858 -0.014137555 0.023370635
0.026094222 5.129754e-05 -0.01622086 -0.0070916815 0.00041232826 0.0070078354 -0.019890161 -0.012371737
0.013300515 -0.01372341 0.0049481136 -0.015695032 0.013367527 0.015410072 -0.015023825 -0.02766415
0.055320285 0.026032459 0.018219933 0.00087658525 0.11133815 0.05095032 -0.002662572 0.058568213
0.02021092 0.020143382 0.044938322 0.014466494 0.022093564 0.02716493 0.0937442 0.04072279
0.016538424 0.05166768 -0.022015395 0.03213846 0.06270526 0.058165837 0.073287316 0.06063018
0.03692923 0.06771021 0.016722664 0.027040996 0.04999222 0.021789594 0.023832725 0.009206761
0.0046947873 0.033729255 0.04244293 0.022177361 0.072780475 0.0335557 0.048384756 0.045648947
0.035448268 0.050246082 0.020986477 0.04381984 0.03261152 0.03789414 0.03865202 0.045732822
0.080927655 0.103130974 0.02972459 0.06523254 0.096249424 0.037509613 0.055811904 0.05357636
0.026844544 0.03707119 0.015541422 0.015850691 0.02135213 0.036471486 0.04544047 0.041781627
00000000: 3e10 e53c 9d2e 613c 90c8 873c 3bef 6f3c
00000010: 7856 373d 55db df3c 3712 593c 71e5 0e3d
00000020: 9230 6a3c f53e 22bc 8804 423d 173a cd3c
00000030: ac6d b83c 2874 a63c e1ce 5ebb 0fc3 0d3d
00000040: 1b70 303d 9245 5b3d e47d 59bc 46f4 d73c
00000050: d53a e03c 803e af3c d166 573d ba12 243b
00000060: 600c ea3c 3cf9 a23d 78f7 b33b 8e70 eb3c
00000070: b234 a73c b3ad 363c 78ec b13b cfa9 7a3c
00000080: 7771 583d 94e5 4a3d 8cc4 0c3d 5f1d 963c
00000090: da12 593d 843a 063d 0a2e 243d 0375 313d
000000a0: 55b7 003d 0b21 123d f8cf 0f3c f287 b83c
000000b0: 48d4 813c 53e3 4e3c ab3f 213d ec18 543c
000000c0: c041 5138 6ab2 943b 3211 ee3c cb83 583c
000000d0: bce1 1f3c c2b4 0c3c 539f 333d 3a63 6c3c
000000e0: d940 393c f974 0c3c b36c b13c 56be 633c
000000f0: c960 553c 69ab 9b3c e8e6 a23c 9e07 0d3d
00000100: 64e3 803f 220c 823f a51f 813f 3546 813f
00000110: ea3b 7b3f 07b5 813f 65f7 813f 04ca 803f
00000120: cf0d 823f a2be 7a3f 88b4 803f 17c3 853f
00000130: c292 813f 7d59 813f 3e55 7f3f e505 803f
00000140: c4e9 7f3f db30 7d3f a97d 843f 3887 7d3f
00000150: 45dd 813f 44c8 803f 4aba 7c3f 1f56 803f
00000160: b102 7f3f 0518 783f 37b7 7d3f 417b 7e3f
00000170: 33c0 813f 1015 7d3f 53fd 813f a828 7e3f
00000180: a6de 803f 9be0 813f 9417 813f db13 813f
00000190: 4d54 7d3f 9a3a 833f 4b0b 803f 76e3 813f
000001a0: 21e5 7b3f b61c 7e3f 39af 813f d432 823f
000001b0: 247f 7f3f 8500 803f 1137 7e3f 1acd 7e3f
000001c0: 57ea 803f 1fb6 823f 616d 7f3f a5c2 793f
000001d0: 98cc 793f 01f2 7d3f 0e1d 813f 7975 813f
000001e0: df84 813f 8db4 7d3f 2344 823f c8d2 813f
000001f0: c889 813f 4552 823f b92b 793f b48b 813f
00000200: 4173 f83b fba7 69bc 4fb5 5a3c e3ad 99bc
00000210: 4587 943c dffd 6b3c c31a 623c 97ec c9bc
00000220: 6b90 7a3c 7be1 2e3c 96e8 8a3c bb7b 733b
00000230: da21 99bc e959 633c 721b e03c cf11 a8bc
00000240: 2171 6fbc d463 0b3c 7c2e 383c e9cf 7dbc
00000250: cfca 9cbc 57e4 9fbb 0aa4 2e3d 57ec cd3c
00000260: d6c1 d6bc 3028 55bc 8762 cd3c 5dad 6fbc
00000270: 715d 423c 831b 983c d98f 3cbc 814d fd3b
00000280: 356f e03c f5b9 173d a91a d53c 787b 85bc
00000290: dd83 30bc a5c7 8bbc 4ecd c7bc 3445 b8bc
000002a0: 6264 57bc f9bf bc3c 1fc4 323c 75da 7a3c
000002b0: edf3 ae3c d2f2 7f3c 34a1 67bc c673 bf3c
000002c0: 8dc3 d53c 5028 5738 9ce1 84bc 5661 e8bb
000002d0: c32d d839 fca1 e53b b1f0 a2bc d3b2 4abc
000002e0: 67ea 593c 27d8 60bc c923 a23b de92 80bc
000002f0: 7903 5b3c 877a 7c3c 7d26 76bc ed9f e2bc
00000300: 8697 623d 0642 d53c f841 953c a4ca 653a
00000310: 4205 e43d 48b1 503d 8c7e 2ebb 39e5 6f3d
00000320: 5f91 a53c bc03 a53c 3f11 383d e004 6d3c
00000330: 90fd b43c fd88 de3c f6fc bf3d f1cc 263d
00000340: 977b 873c 7da1 533d a159 b4bc 9ea3 033d
00000350: 9e6b 803d 4d3f 6e3d a917 963d 5a57 783d
00000360: 1b43 173d a7ab 8a3d f8fd 883c 1485 dd3c
00000370: a4c4 4c3d 1780 b23c d93c c33c f4d7 163c
00000380: bbd6 993b b027 0a3d a3d8 2d3d 4cad b53c
00000390: ee0d 953d b471 093d 182f 463d 64fa 3a3d
000003a0: 3432 113d d6ce 4d3d d5eb ab3c 6f7c 333d
000003b0: a893 053d e336 1b3d 9551 1e3d 5752 3b3d
000003c0: 66bd a53d 5536 d33d fc80 f33c a398 853d
000003d0: 6b1e c53d aea3 193d 069b 643d e372 5b3d
000003e0: 17e9 db3c f6d7 173d 73a1 7e3c 4fd9 813c
000003f0: aaea ae3c 2063 153d c91f 3a3d 3623 2b3d

unknown_16 f4 [256]
0.024464509 0.033354748 0.012546944 -0.0057033245 0.020202575 0.020966796 0.00092353084 0.033713568
0.023241406 0.0068824273 0.011699 0.011737521 0.008731378 0.012260889 0.020441152 0.0188539
0.011516737 0.0128470585 0.02051293 0.016241927 0.020107608 0.044324562 0.027980424 0.016946882
0.023190893 0.006613384 0.016110523 0.015345635 0.03374072 -0.0059747887 0.016089335 0.018285993
0.0160699 0.028897237 0.024456542 0.018067008 0.04429106 0.005117391 0.0022412639 0.018556878
0.021255365 0.04019317 0.08043155 0.058049772 0.032188386 0.010024197 0.019731347 0.028874727
0.016848149 0.008743834 0.047523312 0.03627641 0.012489372 0.004005715 0.02359411 0.011783187
0.011577129 -0.0030864265 0.040292937 0.01620436 0.04450714 0.019416925 0.015602844 0.022874316
1.0188878 0.99487203 1.0144321 1.0132526 1.0019064 1.0031599 1.0022184 0.987055
1.025062 0.98741764 0.9977597 1.0107906 0.9970572 1.0118655 1.0162934 1.014956
1.0101502 1.0162184 0.98848253 1.0159687 1.0178357 0.99271476 0.9887269 1.0155665
0.9992218 0.99762124 1.015258 1.0113804 0.96835923 0.99763596 1.0240884 1.0166339
1.0110466 1.021342 0.9853743 1.0158714 0.9828628 0.9862465 0.99899197 1.0166246
1.0160987 0.9746812 0.96862894 1.0170674 0.96174407 1.0113693 1.0173064 1.0299178
1.0182408 0.9940738 0.97679996 1.0354428 1.0165706 1.0013183 1.0227549 1.0117283
1.0104468 0.9943828 0.9971968 1.0109115 1.0070282 1.0183184 1.0165856 1.0156542
0.013886194 -0.024804972 0.01713314 -0.0054715457 -0.02362795 -0.01684789 0.011015699 -0.023396412
0.018051112 0.023438133 -0.015102517 0.011509348 -0.012013411 0.013325135 0.014403628 -0.012912239
-0.013762235 -0.009958698 -0.0013287502 0.017591909 -0.015239255 0.025720464 -0.014218274 -0.016634937
0.008373876 0.014732426 -0.014170149 -0.013342022 0.021378556 0.01078429 -0.014177799 0.02219122
-0.0139330905 0.016073594 0.02188398 0.012442492 0.036562372 0.02052934 -0.013972641 -0.018196562
-0.013322406 0.021282567 0.023998052 -0.028268784 0.008051844 -0.01334753 -0.012723405 -0.014104054
0.01410217 -0.0115478905 0.02317345 0.007930185 -0.013150476 0.020876033 -0.017143067 0.00966887
0.014450635 -0.012033882 0.019250099 -0.016796486 0.021337852 0.01310939 0.012181653 0.016985828
0.028910438 0.056914512 0.016344834 0.0254088 -0.0016096378 0.04318063 0.02002487 0.06397029
0.038577177 0.024963208 0.008098237 0.040838413 0.016245486 0.029504677 0.029467793 0.044930145
0.019462671 0.022733875 0.00949372 0.01853683 0.03437801 0.032683328 0.025920853 0.03649848
0.036406994 0.028043114 0.03321226 0.033986166 0.058160663 0.024781015 0.034751594 0.019784274
0.041942768 0.03758851 0.019978486 0.029691739 0.058423247 0.0005439082 0.013881679 0.016195558
0.035126906 0.04510591 0.0736901 0.08164616 0.05808176 0.02616549 0.037054982 0.050060675
0.032490473 0.012308088 0.047585927 0.007118542 0.026186774 0.019145481 0.032347552 0.019611089
0.039849788 0.016412878 0.048003208 0.021672187 0.05381769 0.035852883 0.03865914 0.028804246
00000000: cb69 c83c fd9e 083d b391 4d3c f4e2 babb
00000010: df7f a53c 8fc2 ab3c 1b19 723a 3d17 0a3d
00000020: c364 be3c fc85 e13b 2aad 3f3c bb4e 403c
00000030: 0e0e 0f3c e5e1 483c 3474 a73c 7e73 9a3c
00000040: b2b0 3c3c 787c 523c bb0a a83c ca0d 853c
00000050: b6b8 a43c ac8d 353d 3437 e53c 30d4 8a3c
00000060: d4fa bd3c 16b5 d83b 37fa 833c 426c 7b3c
00000070: b633 0a3d 29c8 c3bb c8cd 833c 82cc 953c
00000080: 06a5 833c e6b9 ec3c 1659 c83c 4301 943c
00000090: 8b6a 353d c9af a73b 2be2 123b 9804 983c
000000a0: bb1f ae3c 98a1 243d 4cb9 a43d 99c5 6d3d
000000b0: f8d7 033d 883c 243c a2a3 a13c b18a ec3c
000000c0: 2105 8a3c 4c42 0f3c cea7 423d 9396 143d
000000d0: 39a0 4c3c 5f42 833b 6f48 c13c 450e 413c
000000e0: 00ae 3d3c a545 4abb 350a 253d 02bf 843c
000000f0: 1e4d 363d 3e10 9f3c 12a3 7f3c eb62 bb3c
00000100: ea6a 823f efaf 7e3f e9d8 813f 43b2 813f
00000110: 783e 803f 8b67 803f b148 803f a3af 7c3f
00000120: 3b35 833f 67c7 7c3f 2e6d 7f3f 9661 813f
00000130: 243f 7f3f cf84 813f e715 823f 14ea 813f
00000140: 9a4c 813f 7213 823f 310d 7d3f 430b 823f
00000150: 7148 823f 8e22 7e3f 351d 7d3f 15fe 813f
00000160: 00cd 7f3f 1b64 7f3f f9f3 813f ea74 813f
00000170: 64e6 773f 1265 7f3f 5415 833f 0f21 823f
00000180: fa69 813f 56bb 823f 7d41 7c3f 1308 823f
00000190: e59c 7b3f a77a 7c3f f0bd 7f3f c120 823f
000001a0: 860f 823f b584 793f 11f8 773f 442f 823f
000001b0: dc34 763f 8d74 813f 1937 823f 59d4 833f
000001c0: b755 823f 9f7b 7e3f 900f 7a3f 6489 843f
000001d0: fc1e 823f 332b 803f a2e9 823f 5080 813f
000001e0: 5256 813f df8f 7e3f 4a48 7f3f 8c65 813f
000001f0: 4de6 803f 4258 823f 7a1f 823f f500 823f
00000200: eb82 633c cc33 cbbc cc5a 8c3c a74a b3bb
00000210: 678f c1bc 9604 8abc 317b 343c d5a9 bfbc
00000220: eddf 933c 5401 c03c 8c70 77bc b491 3c3c
00000230: e6d3 44bc ab51 5a3c 32fd 6b3c db8d 53bc
00000240: ff7a 61bc cf29 23bc 7529 aeba e81c 903c
00000250: 11ae 79bc b9b3 d23c c3f3 68bc fe45 88bc
00000260: 9532 093c 4660 713c ea29 68bc 7f98 5abc
00000270: 1522 af3c 97b0 303c 004a 68bc 5dca b53c
00000280: 9e47 64bc c5ac 833c 0846 b33c 98db 4b3c
00000290: 6dc2 153d 252d a83c 81ed 64bc f510 95bc
000002a0: 3946 5abc c758 ae3c 9097 c43c f093 e7bc
000002b0: e2eb 033c 99af 5abc d475 50bc b114 67bc
000002c0: ca0c 673c 5d33 3dbc 3fd6 bd3c 9bed 013c
000002d0: 1875 57bc 3704 ab3c 9e6f 8cbc 2e6a 1e3c
000002e0: 5bc2 6c3c c229 45bc 62b2 9d3c c998 89bc
000002f0: b8cc ae3c c4c8 563c 8e95 473c dd25 8b3c
00000300: 95d5 ec3c 311f 693d 9ae5 853c 1e26 d03c
00000310: 7bfa d2ba 2cde 303d 320b a43c db02 833d
00000320: 1a03 1e3d a47f cc3c 78ae 043c 2e46 273d
00000330: 4115 853c cbb3 f13c 7166 f13c ac08 383d
00000340: 2e70 9f3c 643c ba3c 8c8b 1b3c 8dda 973c
00000350: f5cf 0c3d f4de 053d f857 d43c 6e7f 153d
00000360: 801f 153d acba e53c 9409 083d 1435 0b3d
00000370: e039 6e3d 8e01 cb3c b057 0e3d a112 a23c
00000380: 2ecc 2b3d 69f6 193d eca9 a33c 173c f33c
00000390: 374d 6f3d 1095 0e3a fb6f 633c 8cac 843c
000003a0: 3be1 0f3d fac0 383d d6ea 963d 1a36 a73d
000003b0: 24e7 6d3d 0259 d63c f7c6 173d 6c0c 4d3d
000003c0: bb14 053d dda7 493c 76e9 423d a942 e93b
000003d0: a585 d63c fcd6 9c3c de7e 043d 6fa7 a03c
000003e0: 8839 233d 4d74 863c 039f 443d df89 b13c
000003f0: f06f 5c3d 79da 123d 0c59 1e3d e2f6 eb3c

unknown_18 f4 [20]
-0.010150838 -0.021084327 -0.023763726 -0.029987918 -0.016819501 -0.024459245 -0.014828007 -0.020484366
0.008226792 -0.010618956 -0.032917894 -0.023635032 -0.0031137813 -0.013670023 -0.011544856 -0.025803857
0.00512879 -0.015118146 -0.0011977844 0.025174513
00000000: b34f 26bc 0ab9 acbc 25ac c2bc 39a9 f5bc
00000010: 0dc9 89bc c15e c8bc 2bf1 72bc d4ce a7bc
00000020: abc9 063c 21fb 2dbc ead4 06bd 419e c1bc
00000030: 9510 4cbb 3bf8 5fbc a326 3dbc 9c62 d3bc
00000040: 690f a83b 1ab2 77bc fafe 9cba c83a ce3c

unknown_2 f4 [64]
-0.02012784 -0.030679107 -0.042559728 0.07399327 -0.0059797214 0.002967236 -0.039075773 0.010142962
0.0008137268 -0.03716682 -0.019319184 -0.012126549 -0.07406735 -0.024674041 -0.019819465 0.027613783
-0.003308185 -0.009213986 -0.012977697 -0.03227209 -0.0053869756 -0.008477637 -0.016589344 0.0822315
-0.03167881 -0.022615563 -0.01785115 0.022958895 0.08123568 -0.04307268 -0.00022322014 -0.028920805
-0.014242152 -0.0837945 -0.0033783051 -0.014112609 -0.037084874 0.065018 -0.014970246 -0.005986309
-0.011557502 0.022205424 0.03704289 -0.006541406 0.06547003 0.0018239777 -0.027914725 -0.017522465
-0.049964294 -0.007562787 0.14150558 0.07231721 0.00023736697 -0.080473475 0.0045301225 -0.048668604
-0.028061321 -0.075000554 -0.022081502 -0.03911325 0.032172628 -0.025512356 -0.008087629 0.09686855
00000000: 24e3 a4bc c052 fbbc 1c53 2ebd c989 973d
00000010: 8af1 c3bb f675 423b eb0d 20bd ab2e 263c
00000020: 4850 553a 3c3c 18bd 4443 9ebc 6fae 46bc
00000030: 9fb0 97bd 3721 cabc 6e5c a2bc 4d36 e23c
00000040: 22ce 58bb 42f6 16bc 68a0 54bc bd2f 04bd
00000050: 3a85 b0bb c9e5 0abc 60e6 87bc fd68 a83d
00000060: a4c1 01bd 4644 b9bc 933c 92bc 4b14 bc3c
00000070: e45e a63d fa6c 30bd 3310 6ab9 53eb ecbc
00000080: ea57 69bc 739c abbd 8e66 5dbb 9338 67bc
00000090: 4fe6 17bd 2828 853d c345 75bc cd28 c4bb
000000a0: ad5b 3dbc 26e8 b53c 49ba 173d 4a59 d6bb
000000b0: 2715 863d 8912 ef3a 6cad e4bc 468b 8fbc
000000c0: 5ca7 4cbd 41d1 f7bb d7e6 103e 0c1b 943d
000000d0: b6e5 7839 47cf a4bd 6c71 943b bb58 47bd
000000e0: dbe0 e5bc e499 99bd 44e4 b4bc 3735 20bd
000000f0: 72c7 033d 4aff d0bc fa81 04bc 0563 c63d

unknown_4 f4 [64]
0.07539392 -0.0058186394 -0.0060456195 0.05292017 -0.0052496744 0.07019086 0.04476577 0.0044075563
-0.0042379666 -0.020269556 0.00035539325 -0.024559233 0.06422012 0.04094697 0.029453985 -0.049009755
-0.01106893 -0.00858915 -0.034862716 -0.041246902 0.06663546 -0.022256607 -0.027682714 -0.017560016
0.008900779 0.05482515 -0.030134583 0.0064707976 -0.009845849 0.03146101 -0.008169882 -0.03327289
-0.01616872 -0.01762006 0.05605048 0.043555897 -0.004711473 -0.016921649 -0.05480746 -0.023198158
-0.033438127 -0.00846446 -0.006919542 -0.021433976 -0.008033403 0.013835362 0.041048937 -0.05276816
-0.061745703 -0.0053756693 0.052699152 -0.022610972 -0.008578943 0.016602442 -0.0387197 -0.022529973
-0.02440955 -0.075295374 -0.029605862 -0.0022609045 -0.013550102 0.0015030527 -0.0064304206 -0.013451771
00000000: 2168 9a3d 49aa bebb 551a c6bb d2c2 583d
00000010: 7605 acbb 3ac0 8f3d 505c 373d 436d 903b
00000020: a4de 8abb 570c a6bc 1354 ba39 7230 c9bc
00000030: d785 833d 03b8 273d 7c49 f13c 74be 48bd
00000040: 755a 35bc 82b9 0cbc 35cc 0ebd 83f2 28bd
00000050: 2c78 883d 7d53 b6bc dcc6 e2bc 06da 8fbc
00000060: 93d4 113c 5690 603d cddc f6bc fc08 d43b
00000070: 7c50 21bc 43dd 003d f8da 05bc 2749 08bd
00000080: 4374 84bc f257 90bc 3095 653d ab67 323d
00000090: b362 9abb 459f 8abc ca7d 60bd 100a bebc
000000a0: 6bf6 08bd 85ae 0abc 53bd e2bb 4e96 afbc
000000b0: 899e 03bc b7ad 623c ee22 283d 6d23 58bd
000000c0: 10e9 7cbd 6226 b0bb 11db 573d a53a b9bc
000000d0: b28e 0cbc d801 883c 8c98 1ebd c790 b8bc
000000e0: 89f6 c7bc 7634 9abd fe87 f2bc af2b 14bb
000000f0: 3f01 5ebc 1402 c53a 47b6 d2bb d164 5cbc

unknown_7 f4 [512]
0.0063834293 0.07003615 -0.012001096 0.044851366 -0.0099561 0.056066077 0.01308274 0.0048154155
0.0036760445 -0.01659255 0.02026383 0.06191978 -0.010828271 -0.0060544442 0.11555383 0.011862859
-0.018151985 0.0072561824 -0.002394328 0.01749199 0.015288758 -0.0073784897 0.035097912 0.052724306
0.004254122 0.014954563 0.081288375 0.030368581 -0.022127291 0.013354868 -0.0057263495 0.01866191
0.023521509 0.018387629 -0.027216928 -0.0060039763 0.10136319 0.0066588656 0.022560725 0.07588706
0.07060689 0.030880556 0.103107445 -0.008808407 0.04082224 -0.006181745 -0.0025218464 0.012535922
0.06533799 0.03203423 0.006843839 0.01139079 -0.015409381 0.056334008 -0.011358929 0.019360004
0.033034593 0.040199134 0.032211352 0.008008851 0.03147697 -0.05027459 -0.0036760329 -0.008137843
0.01665224 -0.00033860226 0.073098905 0.06683341 0.024316294 0.0053309663 -0.00046684814 0.020995086
0.02356569 0.010092322 0.022575168 0.009690437 0.012158738 0.010672919 0.060698736 0.005521776
0.022048036 0.06967482 0.06625331 0.02236449 0.0136844935 0.018675875 0.018127639 0.028972587
0.025504198 0.04008654 -0.017062614 0.06337288 0.009448819 0.002661306 -0.030844003 0.028763194
0.011906241 0.038725846 0.04512442 0.047030974 0.046716638 0.0071703 0.038831834 0.020773016
-0.00087083917 0.01407886 0.016127665 -0.0074877907 0.014141494 0.056293763 0.046991576 0.012684934
-0.009784872 0.019347018 0.04280225 0.03254685 -0.021739207 0.02837634 -0.0037428176 0.012642088
0.012496904 5.294725e-05 -0.0024527027 0.0061090654 0.016613133 0.049548563 0.042582747 0.034066398
1.0084995 0.9792016 0.9740487 0.93435425 0.95901716 0.94469565 0.9738031 1.0425844
1.0088321 0.96153945 0.9647795 0.9488744 1.0144368 0.94517314 0.99250704 1.014833
0.9765753 0.9788998 0.95682675 0.9465127 0.9339693 0.9165947 1.0244594 0.98958117
0.94706047 0.9169285 1.0096569 1.0175078 0.9183118 1.0163318 0.9584674 1.0095274
0.97031313 1.0218976 0.98810726 0.9483047 0.9499466 1.0181563 0.93582946 0.95189065
0.9795473 0.9580296 0.92846 0.96982646 0.9192554 0.9875315 0.961937 0.97137046
0.9503205 1.0038906 0.99469656 0.9919046 1.0496056 0.93543285 1.0053184 1.0050943
0.9486873 0.96686584 1.0313293 1.0175617 0.99518657 1.019812 0.99048305 0.97808737
1.0188761 0.9823793 1.0197132 1.0179628 0.9596489 0.9935194 0.9580577 1.0137683
0.986738 1.0762844 0.9463405 0.98747474 0.9744732 1.0012084 0.9293075 1.000961
0.9688638 1.0212264 0.9645123 0.96736526 0.993761 0.9800559 0.97032493 0.98288405
0.9690039 0.98013633 0.9896145 0.9268392 1.0117882 0.9754887 0.9682684 0.9615568
0.990756 0.9270919 1.0311381 1.0210297 0.9501554 1.0120736 1.0826689 0.98781455
0.961175 1.0016695 0.98762983 0.9787312 1.0176846 0.92439544 0.99952537 1.0113673
1.0401306 0.9442397 0.9623181 0.9371797 0.98689944 1.0512847 1.0011499 0.97021145
1.0174242 0.9951532 0.92880243 0.9715897 0.95743227 0.95693463 0.9800736 0.9395052
00000000: 162c d13b 1d6f 8f3d 3fa0 44bc 11b6 373d
00000010: e91e 23bc 8ba5 653d fd58 563c a2ca 9d3b
00000020: cbe9 703b 19ed 87bc 5500 a63c 989f 7d3d
00000030: 0f69 31bc 5c64 c6bb 7da7 ec3d 705c 423c
00000040: 79b3 94bc 45c5 ed3b 28ea 1cbb 5d4b 8f3c
00000050: b37d 7a3c 42c7 f1bb d4c2 0f3d 71f5 573d
00000060: 2966 8b3b fc03 753c 857a a63d 88c7 f83c
00000070: 4b44 b5bc 60ce 5a3c 1aa4 bbbb dde0 983c
00000080: 2eb0 c03c a7a1 963c 09f6 debc 01bd c4bb
00000090: 8197 cf3d 9d32 da3b 45d1 b83c ad6a 9b3d
000000a0: 589a 903d 38f9 fc3c ff29 d33d 2351 10bc
000000b0: 3935 273d 3c90 cabb 9045 25bb 7863 4d3c
000000c0: edcf 853d 5336 033d 4842 e03b 70a0 3a3c
000000d0: a177 7cbc 7dbe 663d cd1a 3abc df98 9e3c
000000e0: 484f 073d d9a7 243d 0df0 033d 8e37 033c
000000f0: ffed 003d baec 4dbd 99e9 70bb 9654 05bc
00000100: 476a 883c 6d86 b1b9 e1b4 953d f4df 883d
00000110: f732 c73c 63af ae3b 4cc3 f4b9 e3fd ab3c
00000120: d50c c13c 445a 253c 8fef b83c a3c4 1e3c
00000130: 7235 473c 78dd 2e3c 3d9f 783d 04f0 b43b
00000140: 159e b43c acb1 8e3d d1af 873d bc35 b73c
00000150: ed34 603c 26fe 983c 6a80 943c eb57 ed3c
00000160: 2eee d03c c931 243d e5c6 8bbc a4c9 813d
00000170: 38cf 1a3c 4e69 2e3b 90ac fcbc caa0 eb3c
00000180: 6512 433c fe9e 1e3d 62d4 383d 8da3 403d
00000190: f259 3f3d d6f4 ea3b 210e 1f3d 2c2c aa3c
000001a0: 0749 64ba 05ab 663c 2a1e 843c 245c f5bb
000001b0: bab1 673c 4a94 663d 3d7a 403d 78d4 4f3c
000001c0: ba50 20bc a37d 9e3c 6951 2f3d d94f 053d
000001d0: 6c16 b2bc 8075 e83c 0f4a 75bb c320 4f3c
000001e0: d0bf 4c3c ad13 5e38 86bd 20bb 8e2e c83b
000001f0: 4418 883c 6ff3 4a3d 3f6b 2e3d 3589 0b3d
00000200: 8316 813f f5ac 7a3f 415b 793f d731 6f3f
00000210: 2682 753f 93d7 713f 294b 793f 6873 853f
00000220: 6921 813f 7327 763f cafb 763f 6fe9 723f
00000230: 11d9 813f def6 713f f114 7e3f 0ce6 813f
00000240: d700 7a3f 2d99 7a3f 99f2 743f a84e 723f
00000250: 9d18 6f3f f3a5 6a3f 7c21 833f 3155 7d3f
00000260: 8e72 723f d4bb 6a3f 703c 813f b23d 823f
00000270: 7b16 6b3f 2917 823f 1f5e 753f 3238 813f
00000280: 7166 783f 8acd 823f 99f4 7c3f 19c4 723f
00000290: b32f 733f f252 823f 8592 6f3f 1baf 733f
000002a0: 9dc3 7a3f 6e41 753f 8eaf 6d3f 8c46 783f
000002b0: 5254 6b3f ddce 7c3f 8141 763f bcab 783f
000002c0: 3448 733f 7d7f 803f 6fa4 7e3f 76ed 7d3f
000002d0: 7a59 863f 8778 6f3f 46ae 803f eea6 803f
000002e0: 2cdd 723f 8584 773f 9902 843f 763f 823f
000002f0: 8cc4 7e3f 3389 823f 4c90 7d3f ef63 7a3f
00000300: 886a 823f 367d 7b3f f685 823f 9b4c 823f
00000310: 8dab 753f 4a57 7e3f 4543 753f 29c3 813f
00000320: dd9a 7c3f b0c3 893f 5f43 723f 25cb 7c3f
00000330: 1377 793f 9927 803f 19e7 6d3f 7d1f 803f
00000340: 7507 783f 8cb7 823f 47ea 763f 40a5 773f
00000350: 1f67 7e3f f2e4 7a3f 3767 783f 4a9e 7b3f
00000360: a410 783f 37ea 7a3f 6057 7d3f 5545 6d3f
00000370: 4782 813f a1b9 793f 70e0 773f 9628 763f
00000380: 2fa2 7d3f e555 6d3f 55fc 833f 1ab1 823f
00000390: 623d 733f a18b 813f e594 8a3f 6ae1 7c3f
000003a0: 910f 763f b536 803f 4fd5 7c3f 218e 7a3f
000003b0: 7d43 823f 2ea5 6c3f e5e0 7f3f 7c74 813f
000003c0: 0023 853f b1b9 713f 7b5a 763f 02eb 6f3f
000003d0: 71a5 7c3f 7f90 863f ae25 803f c75f 783f
000003e0: f53a 823f 5cc2 7e3f ffc5 6d3f 1aba 783f
000003f0: 481a 753f abf9 743f 1ae6 7a3f 6a83 703f

model_1/dense2/Tensordot/MatMul;StatefulPartitionedCall/model_1/dense2/Tensordot/MatMul i1 [20, 128] scale=0.005938372 zero_point=0
0.20190465 -0.1722128 -0.20190465 0.16033605 0.23753488 0.11876744 0.041568603 -0.4038093
0.1722128 0.32661048 -0.11282907 0.05938372 0.07126047 -0.23159651 -0.05344535 0.42162442
0.16627441 0.23159651 -0.23159651 0.005938372 -0.48694652 -0.30285698 0.28504187 -0.28504187
-0.19002791 0.39787093 -0.30879536 -0.1722128 -0.23753488 -0.16627441 -0.11876744 0.10095233
0.22565813 -0.3206721 -0.5285151 -0.1068907 0.19596627 -0.3444256 -0.49288487 -0.005938372
0.1722128 0.23753488 -0.14252093 0.005938372 0.05938372 -0.26722676 -0.08907558 0.48694652
0.24941163 0.24347326 0.16033605 0.38005581 0.20190465 -0.11876744 -0.21971977 -0.3206721
-0.15439768 -0.58789885 0.32661048 -0.095013954 0.18408954 0.15439768 -0.20190465 0.05938372
-0.035630234 0.20784302 0.124705814 -0.08313721 -0.047506977 0.24941163 0.0 0.2969186
0.041568603 0.20784302 0.10095233 -0.2791035 0.16627441 -0.05938372 -0.30879536 0.11282907
-0.07126047 -0.19002791 0.45725465 -0.14252093 0.19002791 0.20784302 0.11282907 0.011876744
-0.21971977 -0.1722128 0.05938372 0.11876744 -0.45725465 0.15439768 -0.16627441 -0.05938372
-0.035630234 -0.16033605 -0.13064419 -0.19596627 0.25535 -0.16627441 -0.124705814 0.023753488
0.023753488 0.05938372 -0.25535 -0.5285151 0.25535 -0.1068907 -0.011876744 0.10095233
-0.017815117 -0.26128837 -0.2137814 -0.13064419 -0.005938372 -0.26722676 -0.13658255 0.1722128
0.11282907 -0.16627441 -0.21971977 0.2791035 -0.28504187 -0.095013954 -0.08907558 -0.035630234
-0.22565813 -0.05344535 -0.095013954 0.20784302 -0.017815117 -0.35630232 -0.02969186 -0.05938372
0.07719884 -0.2731651 -0.28504187 -0.23753488 0.07126047 -0.02969186 0.3147337 -0.29098022
-0.11876744 -0.05344535 -0.1068907 0.11876744 0.4691314 0.3147337 -0.3444256 -0.4275628
-0.26128837 -0.19002791 0.017815117 0.2791035 0.10095233 -0.37411743 0.1722128 0.5522686
-0.08313721 -0.041568603 0.2137814 0.24941163 -0.13064419 0.29098022 -0.30285698 -0.2791035
0.16627441 -0.23159651 0.011876744 0.19596627 -0.30285698 0.047506977 0.16627441 -0.58196044
-0.2791035 0.37411743 0.011876744 -0.3147337 -0.17815116 0.16627441 0.2791035 0.19596627
-0.023753488 0.1722128 -0.3206721 0.11282907 0.05344535 -0.11282907 0.29098022 0.35036394
0.08907558 -0.25535 0.095013954 0.124705814 -0.15439768 -0.005938372 0.19596627 -0.23159651
0.017815117 -0.39193255 0.13658255 0.13658255 -0.25535 -0.11282907 -0.11282907 -0.16627441
0.17815116 0.16033605 -0.07126047 -0.11876744 -0.035630234 -0.2137814 -0.38005581 -0.07126047
0.23159651 0.017815117 0.1068907 0.2137814 0.023753488 -0.3622407 0.28504187 -0.17815116
-0.11876744 0.095013954 -0.5107 -0.005938372 -0.29098022 -0.25535 -0.16033605 0.11282907
0.15439768 -0.35630232 -0.26722676 -0.08907558 -0.30879536 0.24941163 0.05344535 0.124705814
-0.05344535 0.39787093 0.07126047 0.095013954 0.14252093 -0.035630234 0.16627441 0.07126047
0.07719884 -0.29098022 0.16627441 -0.11876744 0.1484593 -0.21971977 -0.08313721 -0.07719884
00000000: 22e3 de1b 2814 07bc 1d37 ed0a 0cd9 f747
00000010: 1c27 d901 aecd 30d0 e043 cce3 d8e4 ec11
00000020: 26ca a7ee 21c6 adff 1d28 e801 0ad3 f152
00000030: 2a29 1b40 22ec dbca e69d 37f0 1f1a de0a
00000040: fa23 15f2 f82a 0032 0723 11d1 1cf6 cc13
00000050: f4e0 4de8 2023 1302 dbe3 0a14 b31a e4f6
00000060: fae5 eadf 2be4 eb04 040a d5a7 2bee fe11
00000070: fdd4 dcea ffd3 e91d 13e4 db2f d0f0 f1fa
00000080: daf7 f023 fdc4 fbf6 0dd2 d0d8 0cfb 35cf
00000090: ecf7 ee14 4f35 c6b8 d4e0 032f 11c1 1d5d
000000a0: f2f9 242a ea31 cdd1 1cd9 0221 cd08 1c9e
000000b0: d13f 02cb e21c 2f21 fc1d ca13 09ed 313b
000000c0: 0fd5 1015 e6ff 21d9 03be 1717 d5ed ede4
000000d0: 1e1b f4ec fadc c0f4 2703 1224 04c3 30e2
000000e0: ec10 aaff cfd5 e513 1ac4 d3f1 cc2a 0915
000000f0: f743 0c10 18fa 1c0c 0dcf 1cec 19db f2f3

model_1/dense1/Tensordot/MatMul;StatefulPartitionedCall/model_1/dense1/Tensordot/MatMul i1 [64, 768] scale=0.0044726334 zero_point=0
-0.0670895 -0.06261687 0.0805074 0.15654217 -0.022363167 -0.058144234 0.049198966 0.0044726334
0.0268358 -0.044726335 -0.0536716 0.031308435 -0.0134179 0.0536716 -0.0134179 -0.031308435
-0.0134179 -0.06261687 0.071562134 -0.049198966 -0.0044726334 -0.058144234 0.120761104 0.0939253
0.022363167 -0.017890533 -0.017890533 -0.049198966 0.16548744 -0.035781067 0.0402537 0.14312427
-0.15654217 0.035781067 0.071562134 -0.022363167 -0.071562134 0.06261687 0.044726335 -0.044726335
0.031308435 0.1610148 0.14312427 0.0 -0.07603477 -0.07603477 -0.0044726334 -0.0805074
-0.049198966 -0.031308435 0.0 0.017890533 -0.0536716 -0.035781067 0.0044726334 0.022363167
0.058144234 0.11181583 0.008945267 -0.08945267 0.22810431 0.035781067 0.0044726334 0.19232324
-0.0134179 0.12523374 -0.0402537 0.11628847 -0.0670895 -0.008945267 -0.0536716 -0.12523374
0.008945267 0.008945267 0.008945267 0.07603477 -0.134179 0.008945267 -0.06261687 -0.0536716
0.0268358 0.049198966 0.10287057 -0.0536716 -0.0134179 0.0044726334 0.07603477 0.1073432
0.08498003 0.044726335 -0.044726335 -0.10287057 0.12523374 0.035781067 0.0536716 -0.15206954
-0.09839793 -0.0268358 0.1744327 0.071562134 -0.0670895 -0.071562134 -0.0268358 0.0268358
-0.15654217 0.16548744 0.049198966 0.15654217 -0.18337797 0.07603477 -0.071562134 0.08945267
-0.031308435 -0.044726335 0.11181583 -0.1073432 0.11181583 -0.071562134 -0.11628847 0.06261687
-0.031308435 -0.008945267 -0.035781067 0.0044726334 0.0536716 0.06261687 0.058144234 0.022363167
0.0670895 0.18337797 -0.049198966 0.11181583 -0.044726335 -0.0670895 0.06261687 -0.08945267
0.022363167 -0.031308435 -0.044726335 0.0402537 0.049198966 -0.058144234 0.1073432 -0.1475969
0.049198966 -0.008945267 -0.017890533 0.049198966 -0.071562134 0.08498003 0.08945267 0.058144234
0.09839793 0.0536716 -0.058144234 -0.0536716 0.2146864 0.058144234 0.0134179 -0.25046748
-0.13865164 -0.06261687 0.0536716 -0.0939253 0.06261687 -0.017890533 -0.0268358 0.049198966
-0.035781067 -0.0939253 0.134179 0.022363167 -0.071562134 0.08945267 -0.044726335 -0.06261687
0.035781067 0.049198966 -0.0044726334 0.0670895 -0.0134179 -0.1475969 -0.17890534 0.08498003
0.044726335 0.0134179 -0.0536716 -0.017890533 0.2549401 0.0805074 -0.0044726334 -0.022363167
-0.0134179 0.120761104 -0.16548744 0.24152221 0.049198966 0.11181583 -0.044726335 -0.134179
0.0670895 -0.0268358 0.017890533 0.017890533 -0.06261687 -0.017890533 0.12970637 -0.0670895
-0.017890533 0.08498003 0.08498003 -0.071562134 -0.06261687 0.0 0.120761104 0.1475969
0.10287057 -0.031308435 0.08945267 0.0805074 0.06261687 -0.07603477 0.031308435 0.049198966
-0.0134179 0.0402537 0.1475969 0.0805074 -0.0134179 0.031308435 0.044726335 0.06261687
0.044726335 -0.0939253 0.11628847 0.1878506 0.134179 -0.022363167 0.0 0.0805074
0.0134179 -0.017890533 0.2012685 0.017890533 -0.07603477 -0.035781067 0.07603477 -0.031308435
0.0670895 0.12523374 0.0536716 0.0044726334 0.30413908 0.0268358 0.0044726334 0.07603477
00000000: f1f2 1223 fbf3 0b01 06f6 f407 fd0c fdf9
00000010: fdf2 10f5 fff3 1b15 05fc fcf5 25f8 0920
00000020: dd08 10fb f00e 0af6 0724 2000 efef ffee
00000030: f5f9 0004 f4f8 0105 0d19 02ec 3308 012b
00000040: fd1c f71a f1fe f4e4 0202 0211 e202 f2f4
00000050: 060b 17f4 fd01 1118 130a f6e9 1c08 0cde
00000060: eafa 2710 f1f0 fa06 dd25 0b23 d711 f014
00000070: f9f6 19e8 19f0 e60e f9fe f801 0c0e 0d05
00000080: 0f29 f519 f6f1 0eec 05f9 f609 0bf3 18df
00000090: 0bfe fc0b f013 140d 160c f3f4 300d 03c8
000000a0: e1f2 0ceb 0efc fa0b f8eb 1e05 f014 f6f2
000000b0: 080b ff0f fddf d813 0a03 f4fc 3912 fffb
000000c0: fd1b db36 0b19 f6e2 0ffa 0404 f2fc 1df1
000000d0: fc13 13f0 f200 1b21 17f9 1412 0eef 070b
000000e0: fd09 2112 fd07 0a0e 0aeb 1a2a 1efb 0012
000000f0: 03fc 2d04 eff8 11f9 0f1c 0c01 4406 0111

model_1/Conv1/Conv2D;StatefulPartitionedCall/model_1/Conv1/Conv2D f4 [32, 3, 3, 1]
-0.6256545 -0.56849104 -0.23515898 -0.16438913 0.3724925 0.48634404 0.11937339 0.95497423
0.18225098 0.6501294 0.5395984 0.5462613 0.26650977 -0.93093973 -0.06580744 0.3420077
0.26684624 -0.04891127 -0.44202426 0.20221916 -0.96164155 -0.33224374 0.33610603 0.17439884
0.80458164 0.18453902 0.48102757 0.13184473 -0.39329958 0.5501387 -0.2126305 0.41338617
0.24422479 0.72496766 0.6619682 0.5459607 0.18443733 0.9017212 -1.0203917 0.5047175
0.122347645 0.7536181 0.31185785 0.91200995 0.041450724 0.034722827 -0.7813449 -0.1395235
-0.2550463 -0.011727145 0.44950986 0.29101154 -0.1492874 0.30722564 -0.34815365 0.51895523
0.6291443 0.17978674 -0.28092813 0.6593395 0.24470954 -0.04043121 -0.45081428 0.72684145
-0.15727733 0.1513582 -1.0066944 0.34796277 0.4362574 -0.010144264 0.329812 0.1423735
0.13154505 -0.5026814 0.13650706 -0.22452016 -0.26986498 -0.11266741 -0.05764017 0.71432006
-0.075574644 -0.13196118 0.30766022 -0.3921017 -0.504779 1.016489 -0.5191171 -0.08104352
0.31590742 -0.07459714 -0.16524726 0.27430543 0.962203 -0.40804386 -0.7264862 0.40897202
-0.112693936 0.02560599 0.65636533 -0.40316698 0.010018767 -0.43719617 0.49042147 0.18748514
-0.0036880688 -0.244259 -0.29591683 0.2294858 0.20723441 0.30773997 -0.39740562 0.515862
-0.264828 -0.59164196 0.7298762 -0.793519 0.108428635 -0.017108958 0.2783701 -0.5002511
-0.5793407 -1.1060266 0.32106355 0.77773994 0.6633434 0.021218477 -0.68460613 0.3360083
-0.23858449 -0.72950083 0.12033723 -0.051054843 -0.43980956 0.7221603 0.24431176 0.542707
0.21997134 0.984412 -0.53052646 -0.33939594 -0.524813 0.30564207 -0.31794247 -0.50188655
0.040658366 0.49453652 0.19411245 0.77666175 -0.59935933 -0.3357295 0.22287723 -0.45971274
0.8395668 0.2270783 -0.47623155 -0.21906276 -0.35181564 0.6885888 0.47548035 0.5428589
-0.65282637 -0.26725125 -0.21586798 -0.32876664 0.74723274 -0.52068365 0.1812462 -0.8251432
0.40262565 0.013149636 0.016485108 0.030184573 -0.785231 -0.22747605 0.629835 -0.28322658
-0.75837624 0.7613848 -0.10036944 -0.6147791 -0.32668883 -0.17251338 -0.19434506 -0.79484195
-0.55533487 -0.39508393 -0.11722532 0.49012968 0.15907642 0.30945596 0.74186975 -0.81437916
-0.06769747 -0.08169645 0.6189762 -0.6552522 -0.20949075 -0.4382167 0.41687474 0.1275441
0.009973287 0.08159062 0.5906679 0.40329066 0.79312944 0.5862758 -0.22793666 0.36820358
0.014032733 0.6762424 -0.32079077 -0.0038510947 -0.8094132 0.24950157 0.689437 -0.9877886
-0.13401502 0.22337599 0.09533585 -0.026294505 0.5631881 -0.028409531 -0.50721604 0.122377835
0.79142267 0.49213794 -0.5931624 -0.6351526 -0.226087 0.2589869 0.8123134 -0.700139
0.50055313 0.47236803 -0.630869 0.2688527 0.4967746 0.4953045 -0.36083323 0.3310161
0.06861808 -0.578733 0.22789368 0.8243743 0.17468672 -0.42569986 0.3438359 0.3017537
-0.63733155 0.10150581 0.16893302 -0.9814792 -0.3631765 0.20707498 -0.13536325 0.032697015
00000000: e52a 20bf a188 11bf 84cd 70be a055 28be
00000010: 56b7 be3e 1602 f93e 097a f43d 3179 743f
00000020: 00a0 3a3e e16e 263f 1f23 0a3f c8d7 0b3f
00000030: f873 883e 1152 6ebf 0dc6 86bd a21b af3e
00000040: 12a0 883e 2f57 48bd 0151 e2be 8a12 4f3e
00000050: 242e 76bf da1b aabe 1716 ac3e 9c95 323e
00000060: 10f9 4d3f ccf7 3c3e 3f49 f63e 4e02 073e
00000070: 905e c9be e4d5 0c3f cfbb 59be 5aa7 d33e
00000080: 1016 7a3e 7b97 393f bf76 293f 15c4 0b3f
00000090: 24dd 3c3e 33d7 663f 329c 82bf 2b35 013f
000000a0: 6791 fa3d 1eed 403f d5ab 9f3e 7c79 693f
000000b0: 3cc8 293d 8639 0e3d 3806 48bf 40df 0ebe
000000c0: 6e95 82be 3623 40bc 2826 e63e 77ff 943e
000000d0: ccde 18be ae4c 9d3e 3241 b2be 40da 043f
000000e0: 9a0f 213f 041a 383e d0d5 8fbe 79ca 283f
000000f0: 2395 7a3e 329b 25bd 21d1 e6be 4812 3a3f
00000100: 4f0d 21be a5fd 1a3e 5ddb 80bf 2d28 b23e
00000110: 215d df3e 2134 26bc 1edd a83e 5cca 113e
00000120: bfb3 063e baaf 00bf 82c8 0b3e 9de8 65be
00000130: be2b 8abe 2cbe e6bd 1918 6cbd aedd 363f
00000140: e1c6 9abd d520 07be a485 9d3e 8ec1 c8be
00000150: 3239 01bf 501c 823f dce4 04bf 25fa a5bd
00000160: 9ebe a13e 63c6 98bd 9436 29be c371 8c3e
00000170: f052 763f 20eb d0be 00fb 39bf c864 d13e
00000180: 14cc e6bd a7c3 d13c 8f07 283f e76b cebe
00000190: c125 243c 2dd8 dfbe 8618 fb3e 1bfc 3f3e
000001a0: 87b3 71bb 081f 7abe 6982 97be 53fe 6a3e
000001b0: 4235 543e 1890 9d3e c078 cbbe 880f 043f
000001c0: 8997 87be d975 17bf 2bd9 3a3f 1024 4bbf
000001d0: d50f de3d 1628 8cbc 8786 8e3e 7510 00bf
000001e0: ac4f 14bf 4892 8dbf 7162 a43e f719 473f
000001f0: e0d0 293f 5fd2 ad3c 5942 2fbf 4809 ac3e
00000200: 7e4f 74be 91c0 3abf 5e73 f63d e21e 51bd
00000210: b82e e1be 7fdf 383f dd2c 7a3e d9ee 0a3f
00000220: 2b40 613e 6d02 7c3f 95d0 07bf 4ec5 adbe
00000230: 255a 06bf 1e7d 9c3e 5bc9 a2be a37b 00bf
00000240: 6389 263d e433 fd3e 6ac5 463e 4ed3 463f
00000250: 9d6f 19bf bde4 abbe ee39 643e 785f ebbe
00000260: daed 563f 3787 683e 9fd4 f3be fd51 60be
00000270: 2e21 b4be 5b47 303f 2972 f33e cdf8 0a3f
00000280: a11f 27bf 28d5 88be 7f0c 5dbe 1a54 a8be
00000290: a54a 3f3f 864b 05bf 9b98 393e 963c 53bf
000002a0: f324 ce3e 9271 573c c70b 873c a345 f73c
000002b0: e604 49bf 7bef 68be de3c 213f 1303 91be
000002c0: f224 42bf 1dea 423f 7e8e cdbd 2a62 1dbf
000002d0: c243 a7be 59a7 30be 6402 47be c37a 4bbf
000002e0: 6d2a 0ebf 7148 cabe d413 f0bd 47f2 fa3e
000002f0: eee4 223e 0371 9e3e 2deb 3d3f 277b 50bf
00000300: f9a4 8abd 7850 a7bd 3975 1e3f 9cbe 27bf
00000310: be84 56be f05d e0be 9b70 d53e ec9a 023e
00000320: ff66 233c fc18 a73d 0336 173f 1d7c ce3e
00000330: 880a 4b3f 2c16 163f 3a68 69be 2e85 bc3e
00000340: 8ce9 653c 391e 2d3f b03e a4be a662 7cbb
00000350: b435 4fbf 577d 7f3e f17e 303f b7df 7cbf
00000360: 3c3b 09be adbc 643e 713f c33d 9367 d7bc
00000370: 182d 103f 1bbb e8bc e9d8 01bf 3ba1 fa3d
00000380: ad9a 4a3f 81f9 fb3e 7ed9 17bf 5c99 22bf
00000390: 5a83 67be ee99 843e c5f3 4f3f 4f3c 33bf
000003a0: 4024 003f 39da f13e a180 21bf 10a7 893e
000003b0: 3e59 fe3e 8d98 fd3e 22bf b8be f17a a93e
000003c0: a387 8c3d d927 14bf f65c 693e 320a 533f
000003d0: 13e1 323e 55f5 d9be 420b b03e 767f 9a3e
000003e0: 2928 23bf 47e2 cf3d c7fc 2c3e 3942 7bbf
000003f0: 45f2 b9be 770b 543e aa9c 0abe 4eed 053d

model_1/Conv2/Conv2D;StatefulPartitionedCall/model_1/Conv2/Conv2D i1 [64, 3, 3, 32]
37 4 -8 48 45 -34 48 7
-13 28 -29 -15 -2 -10 -75 -15
60 -34 -4 101 27 20 8 33
-7 -15 4 44 -47 55 -18 -101
-2 -43 -29 9 14 -22 -6 -26
-36 -28 29 -60 -56 -24 26 8
-33 22 18 42 94 -54 -31 -37
-21 -8 -34 -62 -16 2 18 44
9 -37 -5 28 -3 -58 5 -45
-79 34 -3 -104 53 -5 54 -10
49 -6 -27 42 93 -72 -14 -36
14 2 -11 27 -16 -44 -39 -95
-8 57 7 -19 10 9 0 -40
-55 -23 -19 -26 0 -50 19 -13
-4 47 -21 127 61 -79 -2 20
-35 -56 -32 49 -24 60 -39 -72
-26 2 -4 49 1 -23 1 -12
-62 -25 -21 -100 -94 4 29 -18
-4 -66 -11 63 20 -33 -26 -99
55 -39 67 -1 -21 -46 -34 -1
-19 35 13 -37 8 -117 31 16
-46 21 24 -93 8 -20 56 -83
4 -19 -27 -14 67 -58 26 52
17 20 9 -32 11 -8 24 -61
-19 37 -14 9 21 7 33 31
-7 26 49 -44 75 -48 -26 33
47 22 -125 98 6 -1 17 31
30 -51 25 9 -29 58 27 -54
-10 2 -3 0 4 55 1 45
-33 -29 46 -59 -57 -73 -13 -41
-22 -50 -43 67 4 -63 2 -29
31 28 23 -62 -28 31 -9 17
00000000: 2504 f830 2dde 3007 f31c e3f1 fef6 b5f1
00000010: 3cde fc65 1b14 0821 f9f1 042c d137 ee9b
00000020: fed5 e309 0eea fae6 dce4 1dc4 c8e8 1a08
00000030: df16 122a 5eca e1db ebf8 dec2 f002 122c
00000040: 09db fb1c fdc6 05d3 b122 fd98 35fb 36f6
00000050: 31fa e52a 5db8 f2dc 0e02 f51b f0d4 d9a1
00000060: f839 07ed 0a09 00d8 c9e9 ede6 00ce 13f3
00000070: fc2f eb7f 3db1 fe14 ddc8 e031 e83c d9b8
00000080: e602 fc31 01e9 01f4 c2e7 eb9c a204 1dee
00000090: fcbe f53f 14df e69d 37d9 43ff ebd2 deff
000000a0: ed23 0ddb 088b 1f10 d215 18a3 08ec 38ad
000000b0: 04ed e5f2 43c6 1a34 1114 09e0 0bf8 18c3
000000c0: ed25 f209 1507 211f f91a 31d4 4bd0 e621
000000d0: 2f16 8362 06ff 111f 1ecd 1909 e33a 1bca
000000e0: f602 fd00 0437 012d dfe3 2ec5 c7b7 f3d7
000000f0: eace d543 04c1 02e3 1f1c 17c2 e41f f711
